mpnn_link_prediction.pt (torch, 52418 bytes, 12 tensors)

message_mlp.0.weight f4 [32, 69]
-0.03329331 -0.2134607 -0.09554603 0.23518854 0.04961946 -0.104334526 -0.3018174 0.04772059
-0.09967682 -0.15635802 -0.18887274 0.046231724 -0.18594784 0.06531344 -0.18158099 0.18697695
0.048160136 -0.17516737 0.14428061 -0.048663583 -0.14526038 0.013883662 0.100739576 -7.971289e-05
-0.0776594 -0.0030769603 0.2941479 0.12631555 0.2255321 0.020011608 -0.09191648 0.13174358
0.13646168 0.062308386 0.0560093 0.29208112 -0.28152525 -0.044409085 -0.31160372 -0.11253867
0.380353 -0.32925862 -0.099815525 0.091945276 0.20931247 0.03364981 -0.03004766 0.11673693
0.041650187 -0.094061 0.013328493 -0.5064301 0.09366422 0.19686255 -0.026708426 0.0011803521
-0.43656906 -0.0008184102 0.09928217 0.14470448 0.005162741 0.08170297 0.45259848 0.18835029
-0.08997624 -0.24423563 0.08221697 -0.2475062 -0.27960244 -0.13400282 0.12960927 -0.09883272
-0.10342703 -0.00471712 0.07072507 -0.45341304 0.09637249 0.03748983 0.23886989 0.087221876
-0.091886014 0.010790998 -0.034458585 -0.26925838 -0.17151915 0.11307758 -0.22125638 0.05775525
-0.006696558 0.095193245 -0.006356626 -0.117020264 -0.051581074 -0.056090973 0.040331237 0.17595817
-0.0250259 0.01315774 -0.03963477 0.106582835 0.05313283 -0.17661658 0.024644576 0.059549544
-0.048305877 0.019670315 0.09229368 -0.15024768 0.003841928 -0.16143538 0.19962698 -0.1793963
-0.28015587 0.14964424 -0.24416052 -0.023733523 0.24265994 -0.1061817 -0.3821255 0.10098029
0.25550032 0.11505935 -0.31663185 0.2909948 -0.16136315 0.31394553 0.11551904 0.29630187
0.43701202 -0.043013442 -0.041110158 0.29081956 -0.11013261 -0.028793205 -0.13402584 -0.07247181
0.031683814 0.031247566 0.34798363 -0.21865463 0.22465166 0.26285875 -0.20870587 -0.07202083
0.23849317 -0.1892887 0.02924747 -0.43785903 0.22991556 0.108225174 -0.015213089 -0.110735
0.41768795 0.18858571 -0.20345233 -0.1945377 0.0772387 -0.37666044 0.032842543 -0.39453337
0.32374194 0.013388409 -0.050108396 -0.13841885 0.14782178 -0.19614196 0.12044943 0.022923417
0.23277767 0.19077213 -0.31292126 -0.24645492 0.07941193 0.21035266 0.11436089 -0.13526992
0.4582282 -0.13867797 -0.32872465 -0.058612984 -0.055776894 0.4358935 -0.29564258 0.20615111
-0.11714845 0.09162486 -0.27557915 0.19745554 0.13789389 -0.151113 0.10309556 0.15371996
-0.034287598 -0.04501941 0.067293 0.21869801 -0.15050615 0.24672247 0.11877552 0.022260103
0.08624804 -0.0418081 0.19584432 0.029690724 0.2262943 0.0437356 -0.040128462 0.37928966
-0.13308989 0.15928245 -0.16658701 0.10532589 0.049886066 0.27465525 0.11474358 0.09371926
0.10342883 0.21744029 -0.053993687 -0.19380552 -0.08289052 0.3089421 0.23226628 0.18660454
0.0013278787 -0.0011678742 -0.05552266 -0.17243798 -0.008290133 0.067853 0.104279056 -0.16544491
0.08382588 0.18096961 0.26307338 0.103729025 -0.22160563 0.17259794 -0.08365129 0.025870508
0.09523968 -0.15141308 0.10191104 -0.03253099 0.08552594 -0.111448236 0.014454364 0.0078383945
-0.021783644 0.29430595 -0.19759078 -0.15100563 -0.12735124 -0.29405105 0.15272126 0.016218718
00000000: 915e 08bd 7195 5abe a3ad c3bd 44d5 703e
00000010: c63d 4b3d 57ad d5bd cf87 9abe aa76 433d
00000020: 5c23 ccbd 511c 20be db67 41be 7a5d 3d3d
00000030: 1c69 3ebe 0ec3 853d 5ef0 39be e376 3f3e
00000040: 9043 453d 135f 33be 4cbe 133e 7753 47bd
00000050: 23bf 14be 4d78 633c 8d50 ce3d 882b a7b8
00000060: e40b 9fbd d4a6 49bb 8e9a 963e dd58 013e
00000070: e3f1 663e 62ef a33c b53e bcbd cae7 063e
00000080: 9cbc 0b3e 1437 7f3d 026a 653d a88b 953e
00000090: 1424 90be 4de6 35bd 868a 9fbe ad7a e6bd
000000a0: a1bd c23e 9694 a8be 156c ccbd ce4d bc3d
000000b0: 0256 563e 62d4 093d 8326 f6bc c613 ef3d
000000c0: 6399 2a3d 0ea3 c0bd c05f 5a3c 67a5 01bf
000000d0: 07d3 bf3d 5696 493e a1cb dabc 0bb6 9a3a
000000e0: fb85 dfbe 948a 56ba 7354 cb3d 692d 143e
000000f0: 362c a93b e353 a73d fdba e73e e6de 403e
00000100: 7745 b8bd e818 7abe 5f61 a83d 4472 7dbe
00000110: 0d28 8fbe 0938 09be 4bb8 043e cf68 cabd
00000120: 8dd1 d3bd 1292 9abb 4ed8 903d c125 e8be
00000130: f15e c53d f08e 193d 4f9a 743e 62a1 b23d
00000140: bc2e bcbd bacc 303c 7224 0dbd 3cdc 89be
00000150: b7a2 2fbe 3895 e73d 0891 62be c590 6c3d
00000160: cd6e dbbb adf4 c23d 3e4b d0bb 52a8 efbd
00000170: ad46 53bd a6bf 65bd 5e32 253d 612e 343e
00000180: 1e03 cdbc 9093 573c 1258 22bd 1a48 da3d
00000190: cfa1 593d fada 34be 6ce3 c93c 39ea 733d
000001a0: 62dc 45bd a423 a13c 7804 bd3d 87da 19be
000001b0: dbc8 7b3b 514f 25be 046b 4c3e aab3 37be
000001c0: 9770 8fbe 573c 193e 3705 7abe ce6c c2bc
000001d0: d97b 783e cb75 d9bd f4a5 c3be c1ce ce3d
000001e0: f0d0 823e 3da4 eb3d 921d a2be 45fd 943e
000001f0: 623c 25be 78bd a03e 3f95 ec3d e1b4 973e
00000200: 0ac0 df3e dd2e 30bd 2063 28bd 4de6 943e
00000210: 358d e1bd badf ebbc 123e 09be 1a6c 94bd
00000220: e3c6 013d e5fa ff3c e92a b23e 00e7 5fbe
00000230: 160b 663e 6c95 863e feb6 55be a87f 93bd
00000240: 8e37 743e e6d4 41be 6498 ef3c 0f2f e0be
00000250: fc6e 6b3e 29a5 dd3d 5240 79bc 08c9 e2bd
00000260: 32db d53e 9d1c 413e cf55 50be e434 47be
00000270: 532f 9e3d a3d9 c0be e785 063d 4700 cabe
00000280: 81c1 a53e 0f5b 5b3c 763e 4dbd acbd 0dbe
00000290: 985e 173e 70d9 48be 31ae f63d e4c9 bb3c
000002a0: 455d 6e3e c559 433e 3737 a0be ae5e 7cbe
000002b0: b9a2 a23d b066 573e 0b36 ea3d 3384 0abe
000002c0: e39c ea3e 9901 0ebe 994e a8be 2b14 70bd
000002d0: 5076 64bd 6f2d df3e 775e 97be 4719 533e
000002e0: 87eb efbd d1a5 bb3d b618 8dbe c931 4a3e
000002f0: 0e34 0d3e 5ebd 1abe c423 d33d c468 1d3e
00000300: 2771 0cbd 4666 38bd ead0 893d 5ff2 5f3e
00000310: 491e 1abe d1a4 7c3e 9440 f33d d25a b63c
00000320: d0a2 b03d f83e 2bbd 6a8b 483e f639 f33c
00000330: b1b9 673e 1a24 333d be5d 24bd 4132 c23e
00000340: b748 08be f01a 233e c995 2abe 1ab5 d73d
00000350: 5555 4c3d 9d9f 8c3e affe ea3d e2ef bf3d
00000360: 7fd2 d33d aba8 5e3e 7c28 5dbd f474 46be
00000370: 81c2 a9bd a92d 9e3e 36d7 6d3e 4315 3f3e
00000380: 370c ae3a 5b13 99ba bb6b 63bd 9593 30be
00000390: 57d3 07bc 83f6 8a3d 4290 d53d 646a 29be
000003a0: e7ac ab3d 1950 393e 8eb1 863e e26f d43d
000003b0: 96ec 62be 84bd 303e 5e51 abbd 63ee d33c
000003c0: 050d c33d 080c 1bbe bcb6 d03d 373f 05bd
000003d0: 3928 af3d f93e e4bd ffd1 6c3c 9c6c 003c
000003e0: 9d73 b2bc 45af 963e 3d55 4abe 38a1 1abe
000003f0: 5d68 02be dc8d 96be f662 1c3e 1edd 843c

message_mlp.0.bias f4 [32]
-0.25711513 0.063492395 -0.15400647 -0.101970546 -0.15723199 -0.048643716 0.034918796 -0.032560423
-0.05480928 0.035320263 -0.06670864 -0.021589663 -0.21619745 0.2307151 -0.09240753 0.06941907
0.078030154 -0.09468514 -0.08516828 -0.021328585 -0.18647382 0.090552494 -0.0901045 -0.0828908
-0.072787784 -0.035302036 -0.0024034744 -0.0059172004 -0.15962613 -0.0904583 -0.052640766 -0.13344598
00000000: 98a4 83be 4d08 823d dfb3 1dbe efd5 d0bd
00000010: 6c01 21be a23e 47bd 0307 0f3d 145e 05bd
00000020: b27f 60bd fbab 103d 8a9e 88bd cedc b0bc
00000030: dd62 5dbe 9440 6c3e 2940 bdbd 962b 8e3d
00000040: 46ce 9f3d 48ea c1bd b56c aebd 49b9 aebc
00000050: fef2 3ebe 9673 b93d b588 b8bd a7c2 a9bd
00000060: c311 95bd de98 10bd 9c83 1dbb 13e5 c1bb
00000070: 0875 23be 3442 b9bd d89d 57bd 10a6 08be

message_mlp.2.weight f4 [32, 32]
-0.16547905 0.10166568 0.07977626 -0.08266888 -0.15956065 -0.18561612 0.35281855 0.012687962
-0.020133609 -0.016506752 -0.23712227 0.13966388 -0.089732245 0.027715955 0.054979537 -0.13971795
0.105463296 -0.25289887 0.23310046 -0.0048546195 -0.11235063 -0.06182233 0.023457542 0.048950724
-0.19586219 0.08029991 -0.22691463 0.28941923 0.13174984 0.06321081 -0.018508662 0.29929805
-0.26655665 0.11282454 0.058964644 -0.16162878 0.0048433198 0.054150485 -0.008395844 -0.09623805
0.03101602 -0.23708303 -0.00087187445 -0.25425607 -0.025074895 -0.4054452 0.16204675 -0.045603156
0.034971733 0.003985276 0.016607095 0.14220893 -0.16321659 0.01057733 0.12135017 -0.20186159
-0.13477755 0.16258122 0.057656683 -0.11248202 0.17309013 -0.07576883 0.07506894 0.11232582
0.048542917 -0.23079813 -0.27905557 0.043275364 0.05438256 -0.16892047 0.060765754 -0.1433997
-0.047428846 -0.16480269 0.10588417 -0.10191086 0.10540988 -0.09507397 0.106656656 0.26149002
-0.13052823 0.06550728 -0.18981671 0.01708244 -0.029681679 0.15075284 -0.26460093 -0.21511924
-0.102623895 0.07988906 -0.026777696 -0.026214954 0.10829297 -0.14823341 -0.073657736 0.10549143
-0.09920021 0.058746185 -0.01909055 0.14043024 -0.123709604 -0.0031322048 -0.0971512 -0.12976184
0.1645906 -0.21540378 0.1860019 0.06509866 0.194994 -0.14464767 0.16228925 0.039801236
0.15307654 -0.10409581 -0.08632965 -0.047374517 0.037715495 0.45189828 0.02994973 -0.064845026
0.070902444 -0.16976741 -0.12686951 0.08292649 -0.06786499 0.09748255 0.018160984 0.00069041015
0.06326323 -0.17079532 0.28065434 0.26852196 0.06015404 -0.015855422 -0.081413984 -0.035146736
0.24055156 0.32694995 0.06645223 0.11935371 -0.027644003 0.39373752 -0.10026377 0.04537956
0.20638824 0.093659654 0.05740369 -0.059748445 0.08951563 -0.19706926 0.24522372 0.22510238
-0.07878215 0.2643172 -0.18913539 0.05175384 -0.07679483 -0.012217611 -0.028422242 0.099867
-0.35228908 -0.019853598 -0.0819951 0.10838959 0.042304408 -0.1665607 0.0228239 0.043175217
-0.01224697 0.059280053 -0.0026723072 0.16650498 -0.055611335 0.019991728 0.06152565 -0.16673706
-0.09228881 -0.0961872 0.045672353 0.058965527 0.09672428 -0.29400474 -0.049902823 0.3252186
0.056440897 -0.16154018 -0.11404853 0.2982118 0.0928501 0.04126577 -0.24808577 0.21229321
0.17831993 -0.055592787 -0.09976807 -0.21579789 0.19202228 -0.068627074 0.10427407 -0.21726528
-0.108209126 0.026392031 -0.008943579 0.2701596 0.12677467 0.35559282 -0.10094655 -0.18193203
0.2923608 0.116142854 -0.08510065 -0.036077596 0.10974288 0.20434503 0.051266596 -0.12319522
-0.19408664 -0.035135992 0.05610153 0.11449326 0.0056716637 -0.1308314 0.037911423 0.029113095
-0.04702727 0.100675955 0.12634745 0.13896438 -0.051751662 -0.09111472 -0.072268724 0.013870384
-0.07517294 -0.17252679 0.07162346 0.041958265 0.1384202 -0.27180842 0.06945623 0.013969257
-0.012147419 -0.041569967 0.13290344 -0.021109842 0.03955821 -0.18892422 -0.09288184 -0.11436551
-0.24289347 -0.062665135 -0.09416835 0.12928799 -0.099431835 -0.09489094 0.13326727 -0.18140164
00000000: 5773 29be 1936 d03d bc61 a33d 4d4e a9bd
00000010: de63 23be 2712 3ebe a2a4 b43e 2be1 4f3c
00000020: 3def a4bc 2b39 87bc 2ed0 72be 0c04 0f3e
00000030: 8ac5 b7bd 920c e33c 3932 613d 3912 0fbe
00000040: 24fd d73d f67b 81be e3b1 6e3e 8013 9fbb
00000050: 1618 e6bd 6939 7dbd 082a c03c 8e80 483d
00000060: 1990 48be 4774 a43d 4f5c 68be c22e 943e
00000070: 6ee9 063e ab74 813d 7a9f 97bc 983d 993e
00000080: 1d7a 88be 8d10 e73d e984 713d 0482 25be
00000090: b6b4 9e3b e6cc 5d3d b98e 09bc 7418 c5bd
000000a0: 4f15 fe3c e5c5 72be 818e 64ba da2d 82be
000000b0: de69 cdbc 8396 cfbe 95ef 253e 60ca 3abd
000000c0: 853e 0f3d eb96 823b 9a0b 883c 389f 113e
000000d0: 4022 27be 8a4c 2d3c 7086 f83d ceb4 4ebe
000000e0: 2003 0abe b17b 263e 6a29 6c3d f95c e6bd
000000f0: 8a3e 313e b02c 9bbd bfbd 993d 140b e63d
00000100: f0d4 463d 5856 6cbe 5fe0 8ebe 8241 313d
00000110: 3fc0 5e3d 7df9 2cbe 83e5 783d 5fd7 12be
00000120: c044 42bd 09c2 28be cdd9 d83d a4b6 d0bd
00000130: 23e1 d73d 24b6 c2bd ce6e da3d 05e2 853e
00000140: 31a9 05be ae28 863d 505f 42be 79f0 8b3c
00000150: fe26 f3bc f45e 1a3e c679 87be 3848 5cbe
00000160: 7a2c d2bd e09c a33d e65c dbbc bec0 d6bc
00000170: b4c8 dd3d 80ca 17be ded9 96bd e40b d83d
00000180: 7b29 cbbd d79f 703d c963 9cbc f2cc 0f3e
00000190: 765b fdbd ad45 4dbb 35f7 c6bd 4ae0 04be
000001a0: 708a 283e cf92 5cbe 4877 3e3e 7252 853d
000001b0: 82ac 473e 851e 14be 272f 263e 9f06 233d
000001c0: 19c0 1c3e 2f30 d5bd 99cd b0bd c80b 42bd
000001d0: 907b 1a3d 365f e73e 2359 f53c 78cd 84bd
000001e0: 4d35 913d 82d7 2dbe 15ea 01be 5dd5 a93d
000001f0: cdfc 8abd eea4 c73d 58c6 943c a4fc 343a
00000200: 2790 813d f8e4 2ebe edb1 8f3e b67b 893e
00000210: 1564 763d 3be3 81bc 60bc a6bd 06f6 0fbd
00000220: 2653 763e fc65 a73e 1b18 883d b86f f43d
00000230: ad75 e2bc f797 c93e 1757 cdbd ebdf 393d
00000240: 7057 533e a2d0 bf3d 2220 6b3d c9ba 74bd
00000250: f853 b73d 86cc 49be ed1b 7b3e 3d81 663e
00000260: 8958 a1bd 9654 873e b5ac 41be d6fb 533d
00000270: 9c46 9dbd 602c 48bc c3d5 e8bc 1287 cc3d
00000280: 3c5f b4be 03a4 a2bc 0ced a7bd 5dfb dd3d
00000290: 6347 2d3d e38e 2abe 30f9 ba3c 7fd8 303d
000002a0: 84a7 48bc a4cf 723d e021 2fbb 4880 2a3e
000002b0: b6c8 63bd b1c5 a33c 5202 7c3d 1fbd 2abe
000002c0: ea01 bdbd cbfd c4bd ef12 3b3d d685 713d
000002d0: 6117 c63d ca87 96be e766 4cbd 0d83 a63e
000002e0: 922e 673d ca6a 25be 4792 e9bd 38af 983e
000002f0: 3128 be3d 4c06 293d 320a 7ebe 6463 593e
00000300: 8099 363e 43b5 63bd 3453 ccbd 1ffa 5cbe
00000310: 7da1 443e 5a8c 8cbd a58d d53d ca7a 5ebe
00000320: bf9c ddbd 1a34 d83c 1788 12bc 5c52 8a3e
00000330: 38d1 013e 4310 b63e 11bd cebd 644c 3abe
00000340: 51b0 953e 4edc ed3d 4049 aebd 1ac6 13bd
00000350: e0c0 e03d d33f 513e ecfc 513d c74d fcbd
00000360: a6be 46be c2ea 0fbd b8ca 653d 717b ea3d
00000370: 5dd9 b93b abf8 05be 0249 1b3d 967e ee3c
00000380: ab9f 40bd 322f ce3d 3a61 013e ae4c 0e3e
00000390: 8df9 53bd 5b9a babd a001 94bd 9b40 633c
000003a0: 45f4 99bd ddaa 30be 52af 923d 6edc 2b3d
000003b0: 06be 0d3e 792a 8bbe 113f 8e3d 4fdf 643c
000003c0: f805 47bc 4545 2abd d717 083e 8cee acbc
000003d0: ca07 223d 5a75 41be d638 bebd 7738 eabd
000003e0: 11b9 78be 9456 80bd 56db c0bd 1264 043e
000003f0: eba2 cbbd 2e56 c2bd 3777 083e 5ac1 39be

message_mlp.2.bias f4 [32]
0.10945032 -0.031411797 -0.026385276 0.19362275 -0.074202515 -0.057258062 -0.19913745 -0.14521311
-0.12169686 0.16526674 -0.016710628 0.13097817 0.056992605 0.015702803 -0.08897435 0.104019806
0.105788596 -0.016371356 -0.04385555 0.25777146 0.08681368 -0.08821803 -0.08425829 0.15444526
0.046683572 -0.13718118 -0.26812473 0.107903615 0.21589752 0.16389664 -0.13718337 -0.06180346
00000000: 7d27 e03d a8a9 00bd ef25 d8bc 0b45 463e
00000010: 7df7 97bd 6e87 6abd b0ea 4bbe bfb2 14be
00000020: 343c f9bd af3b 293e bae4 88bc 241f 063e
00000030: 1471 693d 2aa3 803c 2f38 b6bd 5608 d53d
00000040: b1a7 d83d 391d 86bc e1a1 33bd 9ffa 833e
00000050: 5fcb b13d a8ab b4bd 9c8f acbd e626 1e3e
00000060: 4637 3f3d 3979 0cbe a547 89be 92fc dc3d
00000070: 3d14 5d3e 85d4 273e cc79 0cbe a025 7dbd

update_gru.weight_ih f4 [96, 32]
-0.22640465 0.26387417 0.14105275 0.44092914 -0.13815914 -0.3451914 -0.14619398 0.13773371
0.055732675 0.12489381 0.17258057 0.11769088 0.115695305 0.1158083 -0.07837208 -0.13392757
0.0973192 0.06549258 -0.02407081 0.0054017855 -0.20211217 0.062263295 -0.12373491 -0.26313722
0.21029915 0.10746886 -0.4202042 -0.31995413 -0.12407095 -0.06318498 -0.016281372 -0.2899996
0.22096114 -0.12698033 -0.008288049 0.38440168 -0.3259237 0.037474178 -0.07606471 -0.22387946
0.046264436 -0.11197688 -0.008336583 0.07936929 -0.18291046 -0.0052595953 -0.25793302 -0.08292677
-0.23570167 0.08595123 0.09305268 0.2348551 -0.0625991 0.14530918 0.016668843 -0.064416006
-0.0030978725 -0.02588344 -0.20764004 -0.21958885 0.221813 0.24410802 0.13582909 0.07878159
0.18793899 -0.4241985 0.20512436 -0.11215681 0.21987262 0.05894016 0.16341978 0.07500084
0.05697417 -0.084937386 -0.2844491 0.12819232 -0.26051614 -0.18855195 -0.106014475 0.10472191
-0.09855461 0.238969 0.22368129 0.109633476 -0.24948414 -0.101682596 0.25339404 0.017016895
-0.068102516 -0.31157517 0.1474447 -0.0077902754 0.3059297 0.059283316 -0.22432244 0.28580695
-0.3496866 -0.079521075 -0.13064846 0.13641602 -0.082383074 -0.21306859 0.27202767 -0.16731012
0.083361775 -0.017174914 -0.1946115 0.17720543 -0.13182425 0.17079389 0.022874989 -0.24024554
0.04561129 -0.001401328 0.36069492 0.1670555 -0.20596461 0.20118046 -0.06291829 0.0028279317
0.20963064 -0.23527795 -0.13967171 0.103461936 0.4126861 0.22304916 0.2873149 -0.078428455
0.08533598 -0.24300945 0.007888338 -0.12881313 0.12947392 -0.11400109 0.11976286 -0.19917451
-0.13010685 -0.28915808 -0.17883414 -0.07155346 -0.30799863 -0.13813606 -0.38240266 0.1973307
0.08739801 0.17437896 0.27399796 0.20820487 -0.038285736 0.23124412 0.18734525 0.26066038
-0.18225533 -0.3169737 -0.04068732 0.10154912 0.23659837 -0.17484975 -0.05934759 0.18673007
0.01366367 -0.05436908 0.059379555 0.11694138 0.16624382 -0.00019856868 0.14236422 -0.12606302
-0.2868617 -0.20404524 -0.05740742 0.07545012 -0.011111263 -0.15073371 -0.2371697 0.10382029
0.10191856 0.027108025 -0.2341003 0.14573303 0.0026942354 0.2263769 -0.13331108 -0.13025813
0.038586877 -0.094571576 -0.21714467 -0.05035266 0.057263434 0.5364221 -0.13364634 -0.043385074
0.04459679 0.071419336 0.046221495 -0.04323098 -0.23476958 -0.08359442 -0.21965979 -0.030570142
-0.04390342 0.21441366 0.11375064 -0.08133764 -0.20594385 -0.023660477 -0.5576422 0.053407684
-0.047872607 -0.29107141 0.069466 0.12517746 0.31980944 0.47280884 -0.3089455 -0.21835963
-0.016353775 -0.080749445 -0.36253348 -0.08452979 0.021967996 0.35735407 -0.1344043 -0.17601195
-0.10980088 0.26894268 0.7090598 -0.06230026 0.023659635 -0.33235902 0.0027409226 -0.07021084
0.30518818 0.04162083 -0.6597144 0.45821637 -0.702092 -0.26635125 -0.41957033 0.31001455
0.4210045 0.44254696 0.40015927 0.074899234 0.54871696 -0.1045781 0.24498422 0.27169967
-0.012661212 -0.49651438 -0.005197513 0.40056673 0.5485175 0.2084636 -0.06294663 -0.25609472
00000000: 9fd6 67be 841a 873e 2270 103e 77c1 e13e
00000010: 9779 0dbe edbc b0be e0b3 15be 110a 0d3e
00000020: f247 643d 53c8 ff3d f6b8 303e eb07 f13d
00000030: a9f1 ec3d e72c ed3d 8b81 a0bd 4f24 09be
00000040: 4a4f c73d f920 863d 2630 c5bc 7601 b13b
00000050: 7ef6 4ebe cc07 7f3d ba68 fdbd ecb9 86be
00000060: a958 573e a218 dc3d 0125 d7be 07d1 a3be
00000070: e918 febd 2067 81bd 8360 85bc d47a 94be
00000080: a343 623e 2207 02be 99ca 07bc 4cd0 c43e
00000090: 79df a6be 867e 193d d1c7 9bbd a840 65be
000000a0: c77f 3d3d 2254 e5bd 2a96 08bc 5e8c a23d
000000b0: e14c 3bbe af58 acbb cc0f 84be 83d5 a9bd
000000c0: c75b 71be 3307 b03d 6792 be3d db7d 703e
000000d0: f533 80bd eecb 143e 198d 883c 8aec 83bd
000000e0: ad05 4bbb 8209 d4bc 979f 54be e6db 60be
000000f0: f222 633e 74f7 793e c816 0b3e 3e58 a13d
00000100: 1473 403e 8c30 d9be 1f0c 523e 78b2 e5bd
00000110: 4a26 613e 3d6b 713d 8457 273e 0a9a 993d
00000120: bf5d 693d a7f3 adbd 50a3 91be d944 033e
00000130: 5f62 85be c313 41be 1e1e d9bd 7178 d63d
00000140: 00d7 c9bd 4ab4 743e b50c 653e 8487 e03d
00000150: c578 7fbe f73e d0bd ddbc 813e 0467 8b3c
00000160: 5579 8bbd c886 9fbe befb 163e 9145 ffbb
00000170: d1a2 9c3e 10d3 723d c8b4 65be 4a55 923e
00000180: 1f0a b3be f2db a2bd b6c8 05be a4b0 0b3e
00000190: 75b8 a8bd a72e 5abe 3647 8b3e 5853 2bbe
000001a0: 94b9 aa3d 68b2 8cbc 3d48 47be 5775 353e
000001b0: f0fc 06be 98e4 2e3e 5464 bb3c ed02 76be
000001c0: e7d2 3a3d c4ac b7ba 01ad b83e 9910 2b3e
000001d0: 63e8 52be 4002 4e3e 4edb 80bd d254 393b
000001e0: 6aa9 563e b4ec 70be 1a06 0fbe dae3 d33d
000001f0: 984b d33e 0067 643e f01a 933e 199f a0bd
00000200: a1c4 ae3d 78d7 78be 163e 013c 97e7 03be
00000210: d094 043e 6779 e9bd 3b46 f53d 67f4 4bbe
00000220: bb3a 05be 870c 94be 4c20 37be 9f8a 92bd
00000230: ffb1 9dbe 8a73 0dbe 48ca c3be 0f11 4a3e
00000240: bafd b23d 6690 323e 7649 8c3e a833 553e
00000250: 81d1 1cbd 42cb 6c3e 6fd7 3f3e 4775 853e
00000260: 24a1 3abe 604a a2be bfa7 26bd fcf8 cf3d
00000270: d846 723e d00b 33be 7516 73bd 2b36 3f3e
00000280: 96dd 5f3c 1db2 5ebd fa37 733d f67e ef3d
00000290: d23b 2a3e e036 50b9 edc7 113e aa16 01be
000002a0: 89df 92be 3cf1 50be 0b24 6bbd 9885 9a3d
000002b0: 040c 36bc f059 1abe 9ddc 72be bb9f d43d
000002c0: aeba d03d a611 de3c fdb7 6fbe 0a3b 153e
000002d0: c591 303b 59cf 673e b382 08be 6362 05be
000002e0: 460d 1e3d beae c1bd 2c5b 5ebe 973e 4ebd
000002f0: 108d 6a3d f552 093f 96da 08be 8cb4 31bd
00000300: 20ab 363d 4d44 923d c052 3d3d f812 31bd
00000310: 7067 70be 8d33 abbd 7fee 60be 3c6e fabc
00000320: 13d4 33bd 418f 5b3e 18f6 e83d 5994 a6bd
00000330: f2e2 52be 9ed3 c1bc a4c1 0ebf 04c2 5a3d
00000340: 1116 44bd 5007 95be 3144 8e3d 852e 003e
00000350: 10be a33e 0014 f23e 1b2e 9ebe ab99 5fbe
00000360: 5af8 85bc f75f a5bd fd9d b9be f41d adbd
00000370: 3af6 b33c 1df7 b63e 48a1 09be 7a3c 34be
00000380: 49df e0bd dbb2 893e f184 353f 8f2e 7fbd
00000390: dad1 c13c f62a aabe 0da1 333b b3ca 8fbd
000003a0: a041 9c3e 9a7a 2a3d 0be3 28bf 569b ea3e
000003b0: 4dbc 33bf 315f 88be ecd1 d6be 3aba 9e3e
000003c0: e78d d73e 8495 e23e ade1 cc3e c564 993d
000003d0: b778 0c3f 0b2d d6bd 25dd 7a3e 381c 8b3e
000003e0: f970 4fbc 2237 febe e64f aabb 1517 cd3e
000003f0: a56b 0c3f 7b77 553e 2aea 80bd d91e 83be

update_gru.weight_hh f4 [96, 32]
0.015032032 -0.086374775 -0.01036762 -0.14510228 0.060595542 -0.096301705 -0.19341123 -0.16251695
0.21708831 0.31072748 0.07231541 -0.21290742 -0.04734727 -0.08014474 -0.09866602 -0.09894135
0.21404536 0.16258225 -0.09032467 -0.17184193 0.18687825 -0.393396 -0.11561502 0.056679524
0.021576125 -0.040230952 -0.048925005 0.19076103 -0.29042184 0.0020329042 0.05207718 -0.0602204
-0.18488687 0.36339223 -0.066423185 0.010114187 -0.29110846 0.09095695 -0.015301677 0.24418631
-0.030866062 0.11402986 0.15694872 0.6353198 0.2374062 0.09154905 0.17222522 0.12041485
-0.19620615 -0.2687433 0.5173858 0.023802496 -0.09105071 0.0632307 -0.2537365 0.25137243
-0.067365915 -0.00027706544 -0.38865376 0.26595187 0.05402648 -0.096357405 0.08223951 -0.23398007
0.3152722 -0.23987079 0.3932775 0.5168827 -0.023756664 0.055927675 0.27693403 0.03013685
-0.5112872 -0.51132613 0.06767991 0.29147586 0.41802344 0.41552615 -0.2636756 -0.12388991
0.30974364 -0.19760711 -0.43340272 0.065897435 -0.5311983 -0.42119527 -0.34117427 -0.2843529
0.3555388 -0.7378365 0.037352502 -0.54313636 0.007220446 -0.3428738 -0.048327673 -0.59488434
0.37705585 0.10694218 0.24793878 0.37763718 0.12544706 0.2806751 -0.066719726 -0.3188889
-0.10442216 -0.29825497 -0.028451111 0.3675058 0.16925089 -0.17343011 0.055141874 -0.19116382
0.43429562 -0.34871346 0.29810193 0.34707665 -0.31386635 -0.32250413 -0.11528248 -0.06302937
-0.66803044 0.15020654 0.39034495 -0.3014829 -0.2678287 0.12740459 -0.23239727 -0.22651993
0.24335921 -0.19219108 -0.7189296 0.409733 -0.24571769 -0.15748714 0.30289108 -0.069174565
-0.09066226 -0.20697959 0.28806844 0.19233784 -0.22500129 0.41071993 0.006137574 0.19055165
-0.5006287 0.36937767 0.3384632 -0.22408545 -0.03928732 0.57952565 -0.12278794 0.1639771
-0.23778099 0.06811569 -0.3524637 0.24533233 0.19365954 0.5227693 0.29813254 -0.42125764
0.07556342 0.29422694 -0.54326296 0.0022779675 0.2809829 0.2955556 -0.2893649 -0.074992165
-0.205934 -0.04189161 0.5173171 -0.033017028 -0.15171242 0.08113991 -0.31590658 0.08831811
-0.1529752 0.11460105 0.094887175 0.24289659 -0.07281593 0.25101942 0.10575733 0.224388
-0.1896178 0.17805138 0.25423056 -0.39777064 0.07982426 0.24941565 -0.06558056 0.33885014
-0.2104945 -0.09709068 0.045666076 -0.016543439 0.21234578 -0.1555313 -0.06034008 -0.22854978
-0.08494658 0.30470788 -0.311629 0.18573746 0.21305223 -0.11245116 -0.17725807 0.32797015
-0.24025509 -0.08466769 -0.08021199 -0.23078157 -0.34002367 -0.5961088 -0.31708908 -0.214047
0.13788824 -0.15528594 -0.055071164 0.062101215 0.24266458 0.008611232 0.13048667 0.093910806
-0.21544205 -0.18251316 0.07259556 0.073332444 0.021906858 0.24461888 -0.09488875 0.09324482
-0.353597 -0.13036977 -0.7302239 0.4941869 -0.29286638 -0.13130157 0.30420944 0.2273267
0.095920876 0.41031423 0.23757036 -0.25582373 0.1269628 -0.3187775 -0.09741175 -0.021330588
-0.34200093 0.51279 0.020978257 -0.20763451 0.034241837 -0.26165715 -0.09029141 0.2353363
00000000: e948 763c 42e5 b0bd f3dc 29bc b195 14be
00000010: 0833 783d d439 c5bd 980d 46be d86a 26be
00000020: 664c 5e3e ac17 9f3e 1a1a 943d 6704 5abe
00000030: 36ef 41bd ed22 a4bd 6911 cabd c3a1 cabd
00000040: b52e 5b3e f67b 263e 24fc b8bd 55f7 2fbe
00000050: 035d 3f3e 336b c9be 91c7 ecbd ca28 683d
00000060: 6ac0 b03c 36c9 24bd 9665 48bd dc56 433e
00000070: 2cb2 94be 793a 053b e24e 553d aba9 76bd
00000080: fc52 3dbe 8c0e ba3e e108 88bd fab5 253c
00000090: 2b0c 95be a347 ba3d e3b3 7abc fa0b 7a3e
000000a0: d3da fcbc 7d88 e93d 2ab7 203e 52a4 223f
000000b0: 9c1a 733e 117e bb3d cf5b 303e 109c f63d
000000c0: 44ea 48be b998 89be 6573 043f 74fd c23c
000000d0: cb78 babd 197f 813d c0e9 81be e3b3 803e
000000e0: 24f7 89bd 1843 91b9 a0fd c6be d82a 883e
000000f0: df4a 5d3d 0857 c5bd 306d a83d 7998 6fbe
00000100: 5c6b a13e b0a0 75be ab5b c93e 6d52 043f
00000110: 569d c2bc 6b14 653d 4cca 8d3e 8ee1 f63c
00000120: b8e3 02bf 45e6 02bf c49b 8a3d 533c 953e
00000130: 2b07 d63e d8bf d43e 7d00 87be feb9 fdbd
00000140: b896 9e3e 8559 4abe f6e6 ddbe 3cf5 863d
00000150: 9dfc 07bf e8a6 d7be 65ae aebe b496 91be
00000160: 2e09 b63e dae2 3cbf f0fe 183d fc0a 0bbf
00000170: 7e99 ec3b 288d afbe 3df3 45bd 574a 18bf
00000180: 770d c13e 8004 db3d aae3 7d3e a959 c13e
00000190: 3275 003e a6b4 8f3e 5aa4 88bd 6845 a3be
000001a0: 49db d5bd e0b4 98be 4e12 e9bc b829 bc3e
000001b0: 1b50 2d3e aa97 31be 72dc 613d 73c0 43be
000001c0: ff5b de3e 928a b2be d1a0 983e 08b4 b13e
000001d0: 17b3 a0be 431f a5be 3919 ecbd 8b15 81bd
000001e0: 0b04 2bbf becf 193e 4bdb c73e f75b 9abe
000001f0: d820 89be 5976 023e 8df9 6dbe d7f4 67be
00000200: 2833 793e bdcd 44be c50b 38bf 86c8 d13e
00000210: 6b9d 7bbe 4f44 21be 8a14 9b3e 65ab 8dbd
00000220: 23ad b9bd 75f2 53be b57d 933e 36f4 443e
00000230: bd66 66be e249 d23e b41d c93b f91f 433e
00000240: 3429 00bf 121f bd3e 0c4b ad3e a876 65be
00000250: beeb 20bd cb5b 143f 3e78 fbbd 9de9 273e
00000260: dc7c 73be 3d80 8b3d 1f76 b4be 6638 7b3e
00000270: b04e 463e 35d4 053f d4a4 983e 15af d7be
00000280: ffc0 9a3d eaa4 963e 4813 0bbf f449 153b
00000290: fedc 8f3e 1053 973e a327 94be 7e95 99bd
000002a0: 5de0 52be 8996 2bbd e56e 043f dd3c 07bd
000002b0: 805a 1bbe ae2c a63d 82be a1be 20e0 b43d
000002c0: 88a5 1cbe f5b3 ea3d 3554 c23d e2b9 783e
000002d0: 8520 95bd 9e85 803e 4d97 d83d f8c5 653e
000002e0: 2b2b 42be 1a53 363e 822a 823e 98a8 cbbe
000002f0: e77a a33d d166 7f3e 1a4f 86bd c47d ad3e
00000300: df8b 57be 7ad7 c6bd 5a0c 3b3d 1b86 87bc
00000310: 2c71 593e 9943 1fbe 2927 77bd f408 6abe
00000320: 79f8 adbd ac02 9c3e d68d 9fbe f631 3e3e
00000330: 5d2a 5a3e cb4c e6bd 2483 35be b4eb a73e
00000340: 6e05 76be 4166 adbd 2f46 a4bd 0152 6cbe
00000350: 9517 aebe 969a 18bf 8059 a2be 232f 5bbe
00000360: 9332 0d3e 4703 1fbe 4d92 61bd d85d 7e3d
00000370: 107d 783e 2016 0d3c 4c9e 053e 4f54 c03d
00000380: d79c 5cbe bbe4 3abe fbac 943d 522f 963d
00000390: 0376 b33c 5f7d 7a3e 0855 c2bd 24f7 be3d
000003a0: aa0a b5be a77f 05be f4ef 3abf 1106 fd3e
000003b0: 95f2 95be eb73 06be 57c1 9b3e 55c8 683e
000003c0: 2a72 c43d b514 d23e a545 733e 54fb 82be
000003d0: 8902 023e ce36 a3be d07f c7bd 7cbd aebc
000003e0: bf1a afbe 3546 033f 98da ab3c 249e 54be
000003f0: 2b41 0c3d edf7 85be b4ea b8bd 00fc 703e

update_gru.bias_ih f4 [96]
0.10962113 -0.007571961 0.35849738 0.18129863 0.41202158 -0.12987687 0.049236335 0.692029
0.46870798 0.48702985 0.6686096 0.29280174 0.81981295 0.50798523 0.35239378 0.5911821
0.05038984 0.55182445 0.29634708 0.32038686 0.30719525 0.14179112 0.26177043 0.4223958
0.11998167 0.051682513 0.18173988 0.37196863 0.1823688 0.32943824 -0.07584394 0.20984021
-0.09798514 0.26493356 -0.26080495 -0.16103001 -0.45737725 0.13268673 0.08857396 -0.33745587
-0.33764455 -0.06520872 -0.23026931 -0.007566121 -0.21171486 -0.36502537 0.16297977 -0.18102473
0.24916951 -0.42003638 -0.30736095 -0.33367023 -0.33867475 -0.28378138 0.047836903 -0.105098024
-0.054436147 -0.027811516 -0.22360955 -0.23782627 -0.16618742 0.0040774355 -0.12532337 -0.15164785
0.12811852 0.12871437 0.25856507 0.15972333 -0.15315881 -0.016201513 0.17330652 -0.09931681
-0.30723685 0.36415923 -0.30733323 -0.0066088466 0.2478368 -0.19018717 -0.3105111 0.033106927
0.18278848 -0.059231594 -0.2884045 -0.18795025 -0.07945878 -0.10811438 -0.08407724 -0.1152468
0.047271073 0.037353344 -0.19451979 0.22158726 -0.1696272 -0.13602118 0.13596791 -0.09089793
00000000: 0b81 e03d 361e f8bb f88c b73e 59a6 393e
00000010: 7ef4 d23e 71fe 04be 0aac 493d d028 313f
00000020: 7efa ef3e fa5b f93e 002a 2b3f 1cea 953e
00000030: 43df 513f 520b 023f f56c b43e b657 173f
00000040: 9465 4e3d 5e44 0d3f ceba 973e bf09 a43e
00000050: b248 9d3e b131 113e c606 863e 4344 d83e
00000060: f3b8 f53d 0bb1 533d 051a 3a3e ac72 be3e
00000070: e3be 3a3e 21ac a83e 1154 9bbd 5ae0 563e
00000080: 6fac c8bd 5fa5 873e 3a88 85be 0de5 24be
00000090: 5a2d eabe 08df 073e 4466 b53d 04c7 acbe
000000a0: bfdf acbe 268c 85bd b8cb 6bbe 39ed f7bb
000000b0: c8cb 58be 9be4 babe 2be4 263e 8c5e 39be
000000c0: 4b26 7f3e 020f d7be 6a5e 9dbe d3d6 aabe
000000d0: c766 adbe cb4b 91be a1f0 433d a23d d7bd
000000e0: 70f8 5ebd fad4 e3bc e7f9 64be bb88 73be
000000f0: 092d 2abe 029c 853b c554 00be 9349 1bbe
00000100: 8031 033e b3cd 033e a462 843e 838e 233e
00000110: aad5 1cbe 09b9 84bc 4477 313e 9d66 cbbd
00000120: 264e 9dbe 1473 ba3e c85a 9dbe 068f d8bb
00000130: eec8 7d3e 6dc0 42be 50fb 9ebe 219b 073d
00000140: e72c 3b3e d49c 72bd c1a9 93be 0876 40be
00000150: 49bb a2bd 126b ddbd b030 acbd 8406 ecbd
00000160: 509f 413d d2ff 183d 3230 47be c5e7 623e
00000170: c1b2 2dbe 2349 0bbe 2c3b 0b3e b228 babd

update_gru.bias_hh f4 [96]
-0.02494985 -0.10428757 0.25782353 0.07345931 0.24893762 0.09918467 -0.016173542 0.7840033
0.61165583 0.31828296 0.5981477 0.024424726 0.897754 0.6116785 0.09843565 0.37815627
0.23796175 0.4711313 0.22740252 0.35751006 0.46002644 0.2210794 0.084605195 0.35044023
0.11154229 -0.07176691 -0.05842772 0.33572125 0.2997698 0.27999404 0.09557463 0.07753303
0.08166701 0.042935785 -0.10695867 -0.246383 -0.15671775 0.16845405 -0.068603374 -0.38738826
-0.27835074 -0.088114604 -0.42521605 -0.089162685 -0.40922517 -0.20672128 -0.08967822 -0.094394915
0.18875971 -0.30509886 -0.31126213 -0.28860408 -0.45663887 -0.064138114 0.11355225 -0.1441956
0.028506301 0.18461831 0.036315143 -0.3709117 -0.08077314 0.07794039 -0.08571825 -0.034444917
-0.056796443 0.18407774 0.06732202 0.06492222 0.0130711235 0.059257824 0.046685576 -0.03632381
-0.16275953 0.278007 -0.15293466 0.063867494 0.09706205 -0.1663153 -0.2822631 0.26635376
0.088489026 0.12609576 0.006061608 -0.2734058 -0.06815926 0.0017015622 -0.06651883 -0.11265418
0.29085144 -0.17107712 -0.16340482 0.2593121 -0.046977192 -0.13115865 0.026739493 0.05441702
00000000: a163 ccbc b994 d5bd 7201 843e d671 963d
00000010: 81e9 7e3e 5521 cb3d 607e 84bc 71b4 483f
00000020: 7a95 1c3f fcf5 a23e 3520 193f 5d16 c83c
00000030: 35d3 653f f696 1c3f a198 c93d b39d c13e
00000040: 3fac 733e 1f38 f13e 35dc 683e 8f0b b73e
00000050: 9688 eb3e a362 623e 7d45 ad3d e76c b33e
00000060: 4970 e43d 88fa 92bd e851 6fbd a8e3 ab3e
00000070: 6d7b 993e 615b 8f3e a2bc c33d a3c9 9e3d
00000080: 0941 a73d 6fdd 2f3d 260d dbbd d34b 7cbe
00000090: 9e7a 20be 387f 2c3e ed7f 8cbd c157 c6be
000000a0: fd83 8ebe 6e75 b4bd ebb5 d9be ed9a b6bd
000000b0: f685 d1be beae 53be 37a9 b7bd 1f52 c1bd
000000c0: 3a4a 413e eb35 9cbe c05d 9fbe eac3 93be
000000d0: 92cc e9be d85a 83bd 158e e83d 03a8 13be
000000e0: 0c86 e93c 950c 3d3e 30bf 143d 23e8 bdbe
000000f0: 636c a5bd 369f 9f3d 0d8d afbd 1d16 0dbd
00000100: 63a3 68bd e07e 3c3e 21e0 893d f1f5 843d
00000110: 4428 563c 55b8 723d 6039 3f3d 47c8 14bd
00000120: 6faa 26be ef56 8e3e e79a 1cbe f6cc 823d
00000130: 78c8 c63d 8f4e 2abe ca84 90be 855f 883e
00000140: bc39 b53d 3f1f 013e 74a0 c63b d8fb 8bbe
00000150: 1597 8bbd f406 df3a 063b 88bd 3cb7 e6bd
00000160: 7bea 943e d72e 2fbe 9853 27be 8ec4 843e
00000170: 286b 40bd 744e 06be c80c db3c 62e4 5e3d

readout_mlp.0.weight f4 [32, 69]
0.16528623 -0.010830661 -0.14082004 -0.16023496 0.030343268 -9.50816e-05 -0.05955312 0.05131324
0.012470338 -0.15580997 -0.0068460545 0.005376333 -0.08425251 0.033216536 0.07856206 -0.089275815
-0.18744156 0.05145342 0.03793548 -0.00913198 -0.14885099 0.16398905 -0.05741646 -0.01343051
0.10555011 0.026282605 0.050876006 -0.14864127 -0.08786933 0.1770997 -0.013434542 -0.11037069
-0.116275094 -0.27707106 -0.06108376 -0.13288665 -0.14466263 0.0034350685 0.1442993 -0.08838952
-0.073150784 -0.035852823 0.10119608 -0.08061741 0.032232568 0.027972745 0.08579801 -0.03582825
-0.30594236 0.027866067 -0.005857724 0.0771657 -0.087681726 -0.041672654 0.020149307 -0.1304565
-0.0061274865 0.0078101293 -0.05698932 -0.036132187 0.06925885 -0.013786941 0.11863044 -0.0057244967
-0.0278198 -0.15063864 -0.04406968 0.02393783 0.051329926 -0.06828898 -0.04783965 -0.29561755
-0.22963296 0.48748046 0.08128779 -0.07176587 0.6266125 0.2277571 -0.09201649 0.32294258
0.008647243 -0.39397958 0.1192348 0.14922112 -0.19473152 -0.15744041 -0.43583235 -0.013872241
0.23348424 0.097794585 0.12111429 0.20219761 -0.088533685 0.068522066 0.206531 0.039510325
-0.24911214 -0.0039195023 0.11124935 0.12094986 0.15949664 -0.153517 -0.01103654 -0.1840275
-0.18045244 -0.10780973 0.11678837 0.12313235 -0.47483534 0.20944901 0.0021284132 -0.47511438
-0.029925793 0.1402972 0.05248576 0.08336289 -0.060487065 -0.22609532 0.023992924 -0.2146129
0.13609497 0.19079177 0.1110711 0.12009963 -0.12400892 0.030881869 0.20000081 -0.10349674
-0.017374536 0.30572656 0.10086513 0.10877833 0.08453195 -0.07154401 -0.18065758 0.09068854
-0.23164944 0.36937913 0.05524952 0.08698598 0.08706286 -0.051657517 -0.15779482 -0.050338898
0.09319498 -0.21710388 -0.07432249 0.13370687 -0.16084586 -0.06066623 -0.0144865215 -0.09948675
0.19210826 0.09479962 -0.021035785 0.078988165 -0.15090093 -0.16237333 -0.14027567 0.002868175
-0.04360388 -0.012608509 0.11942888 0.053874098 0.04167868 0.022867583 -0.10849953 -0.17632146
-0.14482023 0.0462083 0.31260422 -0.15409939 0.06812446 0.11454774 -0.0048180646 -0.095082656
0.073236145 0.1154284 -0.07199055 0.18093288 0.09896249 0.1480159 -0.19342087 -0.09818708
0.124122575 0.21135123 -0.17347927 -0.07732005 -0.08618688 0.0006849131 0.005370754 -0.019433385
-0.019242115 0.034244668 -0.035277303 -0.05180018 0.1400999 -0.02653399 -0.27096653 -0.37015736
-0.024864534 0.017900037 -0.011339875 0.038723286 0.0067694806 0.042242467 -0.17791615 0.2269171
-0.0036173388 0.055834584 -0.20760173 -0.07464841 0.122767344 0.042394776 0.19521037 -0.12062891
-0.07004363 0.027789291 -0.17302409 -0.1611976 0.092290565 0.19476825 -0.063499615 -0.14805338
-0.13338207 -0.09001718 -0.47023875 0.17251192 0.20717691 -0.1945483 0.024795497 0.1499021
-0.0044947257 -0.035985213 -0.15689735 -0.28502575 -0.06929641 0.11953843 -0.10957194 -0.30589768
0.8135694 0.053584255 0.02768885 -0.4895652 0.15154633 0.14119984 0.05717325 -0.14679039
-0.11988976 -0.7572751 -0.027214441 -0.00887751 0.12906724 -0.7780701 0.07696897 0.6784017
00000000: cb40 293e 1673 31bc 2133 10be a214 24be
00000010: 7292 f83c 8c66 c7b8 f9ed 73bd d52d 523d
00000020: 6350 4c3c a68c 1fbe de54 e0bb f32b b03b
00000030: 948c acbd 100e 083d 25e5 a03d 3dd6 b6bd
00000040: aef0 3fbe d2c0 523d 3c62 1b3d 4d9e 15bc
00000050: 656c 18be bfec 273e 862d 6bbd a40b 5cbc
00000060: a82a d83d 9e4e d73c 5c63 503d 6b35 18be
00000070: d6f4 b3bd a059 353e 8e1c 5cbc 070a e2bd
00000080: a321 eebd 42dc 8dbe f732 7abd 7013 08be
00000090: 7122 14be e31e 613b 32c3 133e 9105 b5bd
000000a0: 14d0 95bd 69da 12bd e43f cf3d be1a a5bd
000000b0: 4c06 043d 1927 e53c deb6 af3d a5c0 12bd
000000c0: 7aa4 9cbe 6147 e43c 27f2 bfbb 0d09 9e3d
000000d0: 7a92 b3bd f2b0 2abd 2910 a53c 6496 05be
000000e0: 15c9 c8bb 1dec ff3b a26d 69bd 58ff 13bd
000000f0: 95d7 8d3d 9fe2 61bc 84f4 f23d 8f94 bbbb
00000100: 59e6 e3bc 0441 1abe 6982 34bd 4519 c43c
00000110: 543f 523d 18db 8bbd 82f3 43bd 2f5b 97be
00000120: e724 6bbe 0a97 f93e 367a a63d fcf9 92bd
00000130: ad69 203f 2839 693e 2473 bcbd bb58 a53e
00000140: 2aad 0d3c b1b7 c9be 6031 f43d 6ccd 183e
00000150: b367 47be 0f38 21be 6b25 dfbe 6548 63bc
00000160: 7e16 6f3e 8748 c83d c50a f83d e40c 4f3e
00000170: 2651 b5bd 4c55 8c3d dd7c 533e 94d5 213d
00000180: 4117 7fbe 2b6f 80bb b3d6 e33d 8fb4 f73d
00000190: 1653 233e 8f33 1dbe 9bd2 34bc b471 3cbe
000001a0: 86c8 38be 59cb dcbd be2e ef3d d02c fc3d
000001b0: 9e1d f3be cd79 563e d97c 0b3b 3142 f3be
000001c0: f026 f5bc 12aa 0f3e 4ffb 563d 2aba aa3d
000001d0: 49c1 77bd 8885 67be cf8c c43c 7cc3 5bbe
000001e0: 7b5c 0b3e eb5e 433e 3f79 e33d cbf6 f53d
000001f0: 63f8 fdbd f9fb fc3c 03cd 4c3e 19f6 d3bd
00000200: 0b55 8ebc 3188 9c3e 6192 ce3d 2cc7 de3d
00000210: 161f ad3d aa85 92bd 4dfe 38be eaba b93d
00000220: 8335 6dbe 431f bd3e 524d 623d b525 b23d
00000230: 034e b23d d596 53bd f794 21be 2930 4ebd
00000240: 02dd be3d 7b50 5ebe 6436 98bd 74ea 083e
00000250: c7b4 24be 277d 78bd e058 6dbc b6bf cbbd
00000260: 07b8 443e 4e26 c23d 3d53 acbc 8cc4 a13d
00000270: c685 1abe 3245 26be 6da4 0fbe fef7 3b3b
00000280: fb99 32bd eb93 4ebc 2197 f43d 16ab 5c3d
00000290: 43b7 2a3d cc54 bb3c 0035 debd 9d8d 34be
000002a0: c14b 14be ea44 3d3d a90d a03e 3bcc 1dbe
000002b0: d684 8b3d 0198 ea3d dbe0 9dbb b2ba c2bd
000002c0: d5fc 953d ba65 ec3d c86f 93bd 7846 393e
000002d0: d9ac ca3d 7b91 173e 1f10 46be 4f16 c9bd
000002e0: fa33 fe3d 756c 583e 8da4 31be f959 9ebd
000002f0: bf82 b0bd bd8b 333a 26fd af3b c332 9fbc
00000300: a4a1 9dbc 2344 0c3d ef7e 10bd 6d2c 54bd
00000310: 5976 0f3e cf5d d9bc 20bc 8abe 4485 bdbe
00000320: b5b0 cbbc 19a3 923c e2ca 39bc 4f9c 1e3d
00000330: 85d2 dd3b 7006 2d3d a72f 36be f55c 683e
00000340: e010 6dbb ceb2 643d 8c95 54be 44e1 98bd
00000350: 726d fb3d 25a6 2d3d 3ae5 473e 4a0c f7bd
00000360: 0973 8fbd 5ea6 e33c 3a2d 31be fc10 25be
00000370: d602 bd3d 5471 473e 160c 82bd 4e9b 17be
00000380: 4f95 08be ed5a b8bd 22c3 f0be f7a6 303e
00000390: 2f26 543e ab37 47be ed1f cb3c f07f 193e
000003a0: 7e48 93bb 3b65 13bd b3a9 20be e5ee 91be
000003b0: 47eb 8dbd 90d0 f43d 4167 e0bd 9f9e 9cbe
000003c0: 1646 503f 2a7b 5b3d bad3 e23c 4aa8 fabe
000003d0: f62e 1b3e b196 103e 7f2e 6a3d 3850 16be
000003e0: c388 f5bd c8dc 41bf d2f0 debc fa72 11bc
000003f0: 342a 043e 9a2f 47bf e8a1 9d3d bcab 2d3f

readout_mlp.0.bias f4 [32]
-0.12523474 -0.16422503 -0.045256805 -0.09398826 -0.22463818 -0.087904245 -0.068873696 0.084982924
0.091410495 -0.09314304 -0.107215725 0.13825974 -0.06881875 0.08423005 0.12843259 0.039865144
-0.119637854 -0.09587346 0.743452 0.0153231975 0.11732542 0.1562157 0.056643195 -0.28464603
-0.09674807 0.14461528 -0.13068463 0.014882867 0.03227489 0.09049571 0.8157394 -0.10469785
00000000: 893d 00be 9b2a 28be 335f 39bd eb7c c0bd
00000010: 8d07 66be 2407 b4bd a70d 8dbd 870b ae3d
00000020: 6d35 bb3d c7c1 bebd eb93 dbbd f693 0d3e
00000030: d8f0 8cbd ce80 ac3d d583 033e a249 233d
00000040: b104 f5bd 4e59 c4bd df52 3e3f 260e 7b3c
00000050: 4f48 f03d 02f7 1f3e b202 683d 20bd 91be
00000060: da23 c6bd 0716 143e 31d2 05be 45d7 733c
00000070: ad32 043d d155 b93d 4cd4 503f d46b d6bd

readout_mlp.2.weight f4 [2, 32]
-0.05827639 0.083568275 0.09393487 0.0178627 -0.0426104 -0.057701778 -0.07867308 0.022460565
0.08416541 0.08454542 -0.21307905 0.07121318 -0.041497704 -0.013821896 0.013821919 0.17537753
-0.09708347 -0.4936929 -0.01028563 0.06448327 -0.027607923 -0.01707521 -0.06385234 0.13655254
0.039631225 -0.39199847 -0.036664028 0.083281584 -0.3936766 -0.5912727 0.017231904 -0.11640221
0.07175299 -0.083200544 0.0921232 -0.11154224 -0.04474923 -0.09343571 0.027437875 0.016223794
0.07657777 0.026487222 0.25063932 0.07613588 -0.03861159 -0.025487509 0.04731373 -0.04488737
-0.04076682 0.60782206 -0.1095219 -0.00904161 -0.007083402 -0.15718317 -0.1395693 0.13307852
0.013156333 0.4604331 -0.05823653 0.031225564 0.47440326 0.67715937 -0.024900194 -0.16003472
00000000: 39b3 6ebd d825 ab3d ed60 c03d cc54 923c
00000010: 3e88 2ebd b358 6cbd 5a1f a1bd 38ff b73c
00000020: ea5e ac3d 2626 ad3d 6531 5abe 37d8 913d
00000030: 7ff9 29bd 3c75 62bc 5575 623c 2b96 333e
00000040: b3d3 c6bd 51c5 fcbe 0f85 28bc ce0f 843d
00000050: 032a e2bc 50e1 8bbc 04c5 82bd 6ed4 0b3e
00000060: 5a54 223d 06b4 c8be 052d 16bd 898f aa3d
00000070: fb8f c9be a65d 17bf ec29 8d3c 4864 eebd
00000080: 3bf3 923d 0c65 aabd 17ab bc3d 4270 e4bd
00000090: f84a 37bd 395b bfbd 65c5 e03c c3e7 843c
000000a0: ced4 9c3d bbfb d83c cc53 803e 21ed 9b3d
000000b0: 3027 1ebd 2ecb d0bc 0bcc 413d d2db 37bd
000000c0: 1cfb 26bd 3a9a 1b3f 054d e0bd 4323 14bc
000000d0: e21b e8bb a0f4 20be 41eb 0ebe bc45 083e
000000e0: a98d 573c e3bd eb3e 6d89 6ebd c1cc ff3c
000000f0: fce4 f23e 515a 2d3f 7efb cbbc 24e0 23be

readout_mlp.2.bias f4 [2]
-0.25218213 0.11259782
00000000: 041e 81be b099 e63d
